/usr/bin/python2.7 /home/jjf/Desktop/keras_test/conv2D_mnist/conv2D_mnist.py
Using TensorFlow backend.
('X_train shape:', (50000, 28, 28, 1))
(50000, 'train samples')
(10000, 'test samples')
____________________________________________________________________________________________________
Layer (type)                     Output Shape          Param #     Connected to                     
====================================================================================================
convolution2d_1 (Convolution2D)  (None, 26, 26, 3)     30          convolution2d_input_1[0][0]      
____________________________________________________________________________________________________
activation_1 (Activation)        (None, 26, 26, 3)     0           convolution2d_1[0][0]            
____________________________________________________________________________________________________
maxpooling2d_1 (MaxPooling2D)    (None, 13, 13, 3)     0           activation_1[0][0]               
____________________________________________________________________________________________________
convolution2d_2 (Convolution2D)  (None, 11, 11, 6)     168         maxpooling2d_1[0][0]             
____________________________________________________________________________________________________
activation_2 (Activation)        (None, 11, 11, 6)     0           convolution2d_2[0][0]            
____________________________________________________________________________________________________
maxpooling2d_2 (MaxPooling2D)    (None, 5, 5, 6)       0           activation_2[0][0]               
____________________________________________________________________________________________________
flatten_1 (Flatten)              (None, 150)           0           maxpooling2d_2[0][0]             
____________________________________________________________________________________________________
dense_1 (Dense)                  (None, 32)            4832        flatten_1[0][0]                  
____________________________________________________________________________________________________
activation_3 (Activation)        (None, 32)            0           dense_1[0][0]                    
____________________________________________________________________________________________________
dropout_1 (Dropout)              (None, 32)            0           activation_3[0][0]               
____________________________________________________________________________________________________
dense_2 (Dense)                  (None, 10)            330         dropout_1[0][0]                  
____________________________________________________________________________________________________
activation_4 (Activation)        (None, 10)            0           dense_2[0][0]                    
====================================================================================================
Total params: 5360
____________________________________________________________________________________________________
Train on 50000 samples, validate on 10000 samples
Epoch 1/60
50000/50000 [==============================] - 15s - loss: 1.4476 - acc: 0.4896 - val_loss: 0.3641 - val_acc: 0.9060
…
